{"keras_version": "2.1.4", "backend": "tensorflow", "class_name": "Model", "config": {"input_layers": [["input_2", 0, 0]], "output_layers": [["output", 0, 0]], "name": "model_2", "layers": [{"class_name": "InputLayer", "config": {"batch_input_shape": [null, 224, 224, 3], "sparse": false, "dtype": "float32", "name": "input_2"}, "inbound_nodes": [], "name": "input_2"}, {"class_name": "Conv2D", "config": {"activity_regularizer": null, "kernel_size": [3, 3], "filters": 64, "strides": [1, 1], "bias_constraint": null, "kernel_initializer": {"class_name": "VarianceScaling", "config": {"mode": "fan_avg", "seed": null, "scale": 1.0, "distribution": "uniform"}}, "padding": "same", "trainable": false, "data_format": "channels_last", "activation": "relu", "kernel_regularizer": null, "bias_initializer": {"class_name": "Zeros", "config": {}}, "use_bias": true, "name": "block1_conv1", "kernel_constraint": null, "dilation_rate": [1, 1], "bias_regularizer": null}, "inbound_nodes": [[["input_2", 0, 0, {}]]], "name": "block1_conv1"}, {"class_name": "Conv2D", "config": {"activity_regularizer": null, "kernel_size": [3, 3], "filters": 64, "strides": [1, 1], "bias_constraint": null, "kernel_initializer": {"class_name": "VarianceScaling", "config": {"mode": "fan_avg", "seed": null, "scale": 1.0, "distribution": "uniform"}}, "padding": "same", "trainable": false, "data_format": "channels_last", "activation": "relu", "kernel_regularizer": null, "bias_initializer": {"class_name": "Zeros", "config": {}}, "use_bias": true, "name": "block1_conv2", "kernel_constraint": null, "dilation_rate": [1, 1], "bias_regularizer": null}, "inbound_nodes": [[["block1_conv1", 0, 0, {}]]], "name": "block1_conv2"}, {"class_name": "MaxPooling2D", "config": {"strides": [2, 2], "pool_size": [2, 2], "name": "block1_pool", "padding": "valid", "data_format": "channels_last", "trainable": false}, "inbound_nodes": [[["block1_conv2", 0, 0, {}]]], "name": "block1_pool"}, {"class_name": "Conv2D", "config": {"activity_regularizer": null, "kernel_size": [3, 3], "filters": 128, "strides": [1, 1], "bias_constraint": null, "kernel_initializer": {"class_name": "VarianceScaling", "config": {"mode": "fan_avg", "seed": null, "scale": 1.0, "distribution": "uniform"}}, "padding": "same", "trainable": false, "data_format": "channels_last", "activation": "relu", "kernel_regularizer": null, "bias_initializer": {"class_name": "Zeros", "config": {}}, "use_bias": true, "name": "block2_conv1", "kernel_constraint": null, "dilation_rate": [1, 1], "bias_regularizer": null}, "inbound_nodes": [[["block1_pool", 0, 0, {}]]], "name": "block2_conv1"}, {"class_name": "Conv2D", "config": {"activity_regularizer": null, "kernel_size": [3, 3], "filters": 128, "strides": [1, 1], "bias_constraint": null, "kernel_initializer": {"class_name": "VarianceScaling", "config": {"mode": "fan_avg", "seed": null, "scale": 1.0, "distribution": "uniform"}}, "padding": "same", "trainable": false, "data_format": "channels_last", "activation": "relu", "kernel_regularizer": null, "bias_initializer": {"class_name": "Zeros", "config": {}}, "use_bias": true, "name": "block2_conv2", "kernel_constraint": null, "dilation_rate": [1, 1], "bias_regularizer": null}, "inbound_nodes": [[["block2_conv1", 0, 0, {}]]], "name": "block2_conv2"}, {"class_name": "MaxPooling2D", "config": {"strides": [2, 2], "pool_size": [2, 2], "name": "block2_pool", "padding": "valid", "data_format": "channels_last", "trainable": false}, "inbound_nodes": [[["block2_conv2", 0, 0, {}]]], "name": "block2_pool"}, {"class_name": "Conv2D", "config": {"activity_regularizer": null, "kernel_size": [3, 3], "filters": 256, "strides": [1, 1], "bias_constraint": null, "kernel_initializer": {"class_name": "VarianceScaling", "config": {"mode": "fan_avg", "seed": null, "scale": 1.0, "distribution": "uniform"}}, "padding": "same", "trainable": false, "data_format": "channels_last", "activation": "relu", "kernel_regularizer": null, "bias_initializer": {"class_name": "Zeros", "config": {}}, "use_bias": true, "name": "block3_conv1", "kernel_constraint": null, "dilation_rate": [1, 1], "bias_regularizer": null}, "inbound_nodes": [[["block2_pool", 0, 0, {}]]], "name": "block3_conv1"}, {"class_name": "Conv2D", "config": {"activity_regularizer": null, "kernel_size": [3, 3], "filters": 256, "strides": [1, 1], "bias_constraint": null, "kernel_initializer": {"class_name": "VarianceScaling", "config": {"mode": "fan_avg", "seed": null, "scale": 1.0, "distribution": "uniform"}}, "padding": "same", "trainable": false, "data_format": "channels_last", "activation": "relu", "kernel_regularizer": null, "bias_initializer": {"class_name": "Zeros", "config": {}}, "use_bias": true, "name": "block3_conv2", "kernel_constraint": null, "dilation_rate": [1, 1], "bias_regularizer": null}, "inbound_nodes": [[["block3_conv1", 0, 0, {}]]], "name": "block3_conv2"}, {"class_name": "Conv2D", "config": {"activity_regularizer": null, "kernel_size": [3, 3], "filters": 256, "strides": [1, 1], "bias_constraint": null, "kernel_initializer": {"class_name": "VarianceScaling", "config": {"mode": "fan_avg", "seed": null, "scale": 1.0, "distribution": "uniform"}}, "padding": "same", "trainable": false, "data_format": "channels_last", "activation": "relu", "kernel_regularizer": null, "bias_initializer": {"class_name": "Zeros", "config": {}}, "use_bias": true, "name": "block3_conv3", "kernel_constraint": null, "dilation_rate": [1, 1], "bias_regularizer": null}, "inbound_nodes": [[["block3_conv2", 0, 0, {}]]], "name": "block3_conv3"}, {"class_name": "MaxPooling2D", "config": {"strides": [2, 2], "pool_size": [2, 2], "name": "block3_pool", "padding": "valid", "data_format": "channels_last", "trainable": false}, "inbound_nodes": [[["block3_conv3", 0, 0, {}]]], "name": "block3_pool"}, {"class_name": "Conv2D", "config": {"activity_regularizer": null, "kernel_size": [3, 3], "filters": 512, "strides": [1, 1], "bias_constraint": null, "kernel_initializer": {"class_name": "VarianceScaling", "config": {"mode": "fan_avg", "seed": null, "scale": 1.0, "distribution": "uniform"}}, "padding": "same", "trainable": false, "data_format": "channels_last", "activation": "relu", "kernel_regularizer": null, "bias_initializer": {"class_name": "Zeros", "config": {}}, "use_bias": true, "name": "block4_conv1", "kernel_constraint": null, "dilation_rate": [1, 1], "bias_regularizer": null}, "inbound_nodes": [[["block3_pool", 0, 0, {}]]], "name": "block4_conv1"}, {"class_name": "Conv2D", "config": {"activity_regularizer": null, "kernel_size": [3, 3], "filters": 512, "strides": [1, 1], "bias_constraint": null, "kernel_initializer": {"class_name": "VarianceScaling", "config": {"mode": "fan_avg", "seed": null, "scale": 1.0, "distribution": "uniform"}}, "padding": "same", "trainable": false, "data_format": "channels_last", "activation": "relu", "kernel_regularizer": null, "bias_initializer": {"class_name": "Zeros", "config": {}}, "use_bias": true, "name": "block4_conv2", "kernel_constraint": null, "dilation_rate": [1, 1], "bias_regularizer": null}, "inbound_nodes": [[["block4_conv1", 0, 0, {}]]], "name": "block4_conv2"}, {"class_name": "Conv2D", "config": {"activity_regularizer": null, "kernel_size": [3, 3], "filters": 512, "strides": [1, 1], "bias_constraint": null, "kernel_initializer": {"class_name": "VarianceScaling", "config": {"mode": "fan_avg", "seed": null, "scale": 1.0, "distribution": "uniform"}}, "padding": "same", "trainable": false, "data_format": "channels_last", "activation": "relu", "kernel_regularizer": null, "bias_initializer": {"class_name": "Zeros", "config": {}}, "use_bias": true, "name": "block4_conv3", "kernel_constraint": null, "dilation_rate": [1, 1], "bias_regularizer": null}, "inbound_nodes": [[["block4_conv2", 0, 0, {}]]], "name": "block4_conv3"}, {"class_name": "MaxPooling2D", "config": {"strides": [2, 2], "pool_size": [2, 2], "name": "block4_pool", "padding": "valid", "data_format": "channels_last", "trainable": false}, "inbound_nodes": [[["block4_conv3", 0, 0, {}]]], "name": "block4_pool"}, {"class_name": "Conv2D", "config": {"activity_regularizer": null, "kernel_size": [3, 3], "filters": 512, "strides": [1, 1], "bias_constraint": null, "kernel_initializer": {"class_name": "VarianceScaling", "config": {"mode": "fan_avg", "seed": null, "scale": 1.0, "distribution": "uniform"}}, "padding": "same", "trainable": false, "data_format": "channels_last", "activation": "relu", "kernel_regularizer": null, "bias_initializer": {"class_name": "Zeros", "config": {}}, "use_bias": true, "name": "block5_conv1", "kernel_constraint": null, "dilation_rate": [1, 1], "bias_regularizer": null}, "inbound_nodes": [[["block4_pool", 0, 0, {}]]], "name": "block5_conv1"}, {"class_name": "Conv2D", "config": {"activity_regularizer": null, "kernel_size": [3, 3], "filters": 512, "strides": [1, 1], "bias_constraint": null, "kernel_initializer": {"class_name": "VarianceScaling", "config": {"mode": "fan_avg", "seed": null, "scale": 1.0, "distribution": "uniform"}}, "padding": "same", "trainable": false, "data_format": "channels_last", "activation": "relu", "kernel_regularizer": null, "bias_initializer": {"class_name": "Zeros", "config": {}}, "use_bias": true, "name": "block5_conv2", "kernel_constraint": null, "dilation_rate": [1, 1], "bias_regularizer": null}, "inbound_nodes": [[["block5_conv1", 0, 0, {}]]], "name": "block5_conv2"}, {"class_name": "Conv2D", "config": {"activity_regularizer": null, "kernel_size": [3, 3], "filters": 512, "strides": [1, 1], "bias_constraint": null, "kernel_initializer": {"class_name": "VarianceScaling", "config": {"mode": "fan_avg", "seed": null, "scale": 1.0, "distribution": "uniform"}}, "padding": "same", "trainable": false, "data_format": "channels_last", "activation": "relu", "kernel_regularizer": null, "bias_initializer": {"class_name": "Zeros", "config": {}}, "use_bias": true, "name": "block5_conv3", "kernel_constraint": null, "dilation_rate": [1, 1], "bias_regularizer": null}, "inbound_nodes": [[["block5_conv2", 0, 0, {}]]], "name": "block5_conv3"}, {"class_name": "MaxPooling2D", "config": {"strides": [2, 2], "pool_size": [2, 2], "name": "block5_pool", "padding": "valid", "data_format": "channels_last", "trainable": false}, "inbound_nodes": [[["block5_conv3", 0, 0, {}]]], "name": "block5_pool"}, {"class_name": "Flatten", "config": {"name": "flatten", "trainable": false}, "inbound_nodes": [[["block5_pool", 0, 0, {}]]], "name": "flatten"}, {"class_name": "Dense", "config": {"kernel_regularizer": null, "kernel_constraint": null, "activation": "relu", "bias_constraint": null, "kernel_initializer": {"class_name": "VarianceScaling", "config": {"mode": "fan_avg", "seed": null, "scale": 1.0, "distribution": "uniform"}}, "use_bias": true, "bias_initializer": {"class_name": "Zeros", "config": {}}, "trainable": false, "activity_regularizer": null, "bias_regularizer": null, "name": "fc1", "units": 4096}, "inbound_nodes": [[["flatten", 0, 0, {}]]], "name": "fc1"}, {"class_name": "Dense", "config": {"kernel_regularizer": null, "kernel_constraint": null, "activation": "relu", "bias_constraint": null, "kernel_initializer": {"class_name": "VarianceScaling", "config": {"mode": "fan_avg", "seed": null, "scale": 1.0, "distribution": "uniform"}}, "use_bias": true, "bias_initializer": {"class_name": "Zeros", "config": {}}, "trainable": false, "activity_regularizer": null, "bias_regularizer": null, "name": "fc2", "units": 4096}, "inbound_nodes": [[["fc1", 0, 0, {}]]], "name": "fc2"}, {"class_name": "Dense", "config": {"kernel_regularizer": null, "kernel_constraint": null, "activation": "softmax", "bias_constraint": null, "kernel_initializer": {"class_name": "VarianceScaling", "config": {"mode": "fan_avg", "seed": null, "scale": 1.0, "distribution": "uniform"}}, "use_bias": true, "bias_initializer": {"class_name": "Zeros", "config": {}}, "trainable": true, "activity_regularizer": null, "bias_regularizer": null, "name": "output", "units": 4}, "inbound_nodes": [[["fc2", 0, 0, {}]]], "name": "output"}]}}